./data/charades_traininglabeldata.npy exists
dataset size:7974
./data/charades_testinglabeldata.npy exists
dataset size:1861
Total steps: 50000
datasets created
----------------------------------------------------------------
        Layer (type)               Output Shape         Param #
================================================================
            Conv3d-1     [-1, 24, 16, 224, 224]             648
            Conv3d-2     [-1, 24, 16, 224, 224]              72
       BatchNorm3d-3     [-1, 24, 16, 224, 224]              48
         Hardswish-4     [-1, 24, 16, 224, 224]               0
         MaxPool3d-5      [-1, 24, 8, 112, 112]               0
            Conv3d-6      [-1, 54, 8, 112, 112]           1,296
       BatchNorm3d-7      [-1, 54, 8, 112, 112]             108
         Hardswish-8      [-1, 54, 8, 112, 112]               0
            Conv3d-9        [-1, 54, 4, 56, 56]           1,458
      BatchNorm3d-10        [-1, 54, 4, 56, 56]             108
        Hardswish-11        [-1, 54, 4, 56, 56]               0
           Conv3d-12        [-1, 24, 4, 56, 56]           1,296
      BatchNorm3d-13        [-1, 24, 4, 56, 56]              48
AdaptiveAvgPool3d-14          [-1, 24, 1, 1, 1]               0
           Linear-15                    [-1, 6]             150
        Hardswish-16                    [-1, 6]               0
           Linear-17                   [-1, 24]             168
          Sigmoid-18                   [-1, 24]               0
           Conv3d-19        [-1, 24, 4, 56, 56]             576
      BatchNorm3d-20        [-1, 24, 4, 56, 56]              48
        Hardswish-21        [-1, 24, 4, 56, 56]               0
       Bottleneck-22        [-1, 24, 4, 56, 56]               0
           Conv3d-23        [-1, 54, 4, 56, 56]           1,296
      BatchNorm3d-24        [-1, 54, 4, 56, 56]             108
        Hardswish-25        [-1, 54, 4, 56, 56]               0
           Conv3d-26        [-1, 54, 4, 56, 56]           1,458
      BatchNorm3d-27        [-1, 54, 4, 56, 56]             108
        Hardswish-28        [-1, 54, 4, 56, 56]               0
           Conv3d-29        [-1, 24, 4, 56, 56]           1,296
      BatchNorm3d-30        [-1, 24, 4, 56, 56]              48
AdaptiveAvgPool3d-31          [-1, 24, 1, 1, 1]               0
           Linear-32                    [-1, 6]             150
        Hardswish-33                    [-1, 6]               0
           Linear-34                   [-1, 24]             168
          Sigmoid-35                   [-1, 24]               0
        Hardswish-36        [-1, 24, 4, 56, 56]               0
       Bottleneck-37        [-1, 24, 4, 56, 56]               0
           Conv3d-38        [-1, 54, 4, 56, 56]           1,296
      BatchNorm3d-39        [-1, 54, 4, 56, 56]             108
        Hardswish-40        [-1, 54, 4, 56, 56]               0
           Conv3d-41        [-1, 54, 4, 56, 56]           1,458
      BatchNorm3d-42        [-1, 54, 4, 56, 56]             108
        Hardswish-43        [-1, 54, 4, 56, 56]               0
           Conv3d-44        [-1, 24, 4, 56, 56]           1,296
      BatchNorm3d-45        [-1, 24, 4, 56, 56]              48
AdaptiveAvgPool3d-46          [-1, 24, 1, 1, 1]               0
           Linear-47                    [-1, 6]             150
        Hardswish-48                    [-1, 6]               0
           Linear-49                   [-1, 24]             168
          Sigmoid-50                   [-1, 24]               0
        Hardswish-51        [-1, 24, 4, 56, 56]               0
       Bottleneck-52        [-1, 24, 4, 56, 56]               0
           Conv3d-53       [-1, 108, 4, 56, 56]           2,592
      BatchNorm3d-54       [-1, 108, 4, 56, 56]             216
        Hardswish-55       [-1, 108, 4, 56, 56]               0
           Conv3d-56       [-1, 108, 2, 28, 28]           2,916
      BatchNorm3d-57       [-1, 108, 2, 28, 28]             216
        Hardswish-58       [-1, 108, 2, 28, 28]               0
           Conv3d-59        [-1, 48, 2, 28, 28]           5,184
      BatchNorm3d-60        [-1, 48, 2, 28, 28]              96
AdaptiveAvgPool3d-61          [-1, 48, 1, 1, 1]               0
           Linear-62                   [-1, 12]             588
        Hardswish-63                   [-1, 12]               0
           Linear-64                   [-1, 48]             624
          Sigmoid-65                   [-1, 48]               0
           Conv3d-66        [-1, 48, 2, 28, 28]           1,152
      BatchNorm3d-67        [-1, 48, 2, 28, 28]              96
        Hardswish-68        [-1, 48, 2, 28, 28]               0
       Bottleneck-69        [-1, 48, 2, 28, 28]               0
           Conv3d-70       [-1, 108, 2, 28, 28]           5,184
      BatchNorm3d-71       [-1, 108, 2, 28, 28]             216
        Hardswish-72       [-1, 108, 2, 28, 28]               0
           Conv3d-73       [-1, 108, 2, 28, 28]           2,916
      BatchNorm3d-74       [-1, 108, 2, 28, 28]             216
        Hardswish-75       [-1, 108, 2, 28, 28]               0
           Conv3d-76        [-1, 48, 2, 28, 28]           5,184
      BatchNorm3d-77        [-1, 48, 2, 28, 28]              96
AdaptiveAvgPool3d-78          [-1, 48, 1, 1, 1]               0
           Linear-79                   [-1, 12]             588
        Hardswish-80                   [-1, 12]               0
           Linear-81                   [-1, 48]             624
          Sigmoid-82                   [-1, 48]               0
        Hardswish-83        [-1, 48, 2, 28, 28]               0
       Bottleneck-84        [-1, 48, 2, 28, 28]               0
           Conv3d-85       [-1, 108, 2, 28, 28]           5,184
      BatchNorm3d-86       [-1, 108, 2, 28, 28]             216
        Hardswish-87       [-1, 108, 2, 28, 28]               0
           Conv3d-88       [-1, 108, 2, 28, 28]           2,916
      BatchNorm3d-89       [-1, 108, 2, 28, 28]             216
        Hardswish-90       [-1, 108, 2, 28, 28]               0
           Conv3d-91        [-1, 48, 2, 28, 28]           5,184
      BatchNorm3d-92        [-1, 48, 2, 28, 28]              96
AdaptiveAvgPool3d-93          [-1, 48, 1, 1, 1]               0
           Linear-94                   [-1, 12]             588
        Hardswish-95                   [-1, 12]               0
           Linear-96                   [-1, 48]             624
          Sigmoid-97                   [-1, 48]               0
        Hardswish-98        [-1, 48, 2, 28, 28]               0
       Bottleneck-99        [-1, 48, 2, 28, 28]               0
          Conv3d-100       [-1, 108, 2, 28, 28]           5,184
     BatchNorm3d-101       [-1, 108, 2, 28, 28]             216
       Hardswish-102       [-1, 108, 2, 28, 28]               0
          Conv3d-103       [-1, 108, 2, 28, 28]           2,916
     BatchNorm3d-104       [-1, 108, 2, 28, 28]             216
       Hardswish-105       [-1, 108, 2, 28, 28]               0
          Conv3d-106        [-1, 48, 2, 28, 28]           5,184
     BatchNorm3d-107        [-1, 48, 2, 28, 28]              96
AdaptiveAvgPool3d-108          [-1, 48, 1, 1, 1]               0
          Linear-109                   [-1, 12]             588
       Hardswish-110                   [-1, 12]               0
          Linear-111                   [-1, 48]             624
         Sigmoid-112                   [-1, 48]               0
       Hardswish-113        [-1, 48, 2, 28, 28]               0
      Bottleneck-114        [-1, 48, 2, 28, 28]               0
          Conv3d-115       [-1, 108, 2, 28, 28]           5,184
     BatchNorm3d-116       [-1, 108, 2, 28, 28]             216
       Hardswish-117       [-1, 108, 2, 28, 28]               0
          Conv3d-118       [-1, 108, 2, 28, 28]           2,916
     BatchNorm3d-119       [-1, 108, 2, 28, 28]             216
       Hardswish-120       [-1, 108, 2, 28, 28]               0
          Conv3d-121        [-1, 48, 2, 28, 28]           5,184
     BatchNorm3d-122        [-1, 48, 2, 28, 28]              96
AdaptiveAvgPool3d-123          [-1, 48, 1, 1, 1]               0
          Linear-124                   [-1, 12]             588
       Hardswish-125                   [-1, 12]               0
          Linear-126                   [-1, 48]             624
         Sigmoid-127                   [-1, 48]               0
       Hardswish-128        [-1, 48, 2, 28, 28]               0
      Bottleneck-129        [-1, 48, 2, 28, 28]               0
          Conv3d-130       [-1, 216, 2, 28, 28]          10,368
     BatchNorm3d-131       [-1, 216, 2, 28, 28]             432
       Hardswish-132       [-1, 216, 2, 28, 28]               0
          Conv3d-133       [-1, 216, 1, 14, 14]           5,832
     BatchNorm3d-134       [-1, 216, 1, 14, 14]             432
       Hardswish-135       [-1, 216, 1, 14, 14]               0
          Conv3d-136        [-1, 96, 1, 14, 14]          20,736
     BatchNorm3d-137        [-1, 96, 1, 14, 14]             192
AdaptiveAvgPool3d-138          [-1, 96, 1, 1, 1]               0
          Linear-139                   [-1, 24]           2,328
       Hardswish-140                   [-1, 24]               0
          Linear-141                   [-1, 96]           2,400
         Sigmoid-142                   [-1, 96]               0
          Conv3d-143        [-1, 96, 1, 14, 14]           4,608
     BatchNorm3d-144        [-1, 96, 1, 14, 14]             192
       Hardswish-145        [-1, 96, 1, 14, 14]               0
      Bottleneck-146        [-1, 96, 1, 14, 14]               0
          Conv3d-147       [-1, 216, 1, 14, 14]          20,736
     BatchNorm3d-148       [-1, 216, 1, 14, 14]             432
       Hardswish-149       [-1, 216, 1, 14, 14]               0
          Conv3d-150       [-1, 216, 1, 14, 14]           5,832
     BatchNorm3d-151       [-1, 216, 1, 14, 14]             432
       Hardswish-152       [-1, 216, 1, 14, 14]               0
          Conv3d-153        [-1, 96, 1, 14, 14]          20,736
     BatchNorm3d-154        [-1, 96, 1, 14, 14]             192
AdaptiveAvgPool3d-155          [-1, 96, 1, 1, 1]               0
          Linear-156                   [-1, 24]           2,328
       Hardswish-157                   [-1, 24]               0
          Linear-158                   [-1, 96]           2,400
         Sigmoid-159                   [-1, 96]               0
       Hardswish-160        [-1, 96, 1, 14, 14]               0
      Bottleneck-161        [-1, 96, 1, 14, 14]               0
          Conv3d-162       [-1, 216, 1, 14, 14]          20,736
     BatchNorm3d-163       [-1, 216, 1, 14, 14]             432
       Hardswish-164       [-1, 216, 1, 14, 14]               0
          Conv3d-165       [-1, 216, 1, 14, 14]           5,832
     BatchNorm3d-166       [-1, 216, 1, 14, 14]             432
       Hardswish-167       [-1, 216, 1, 14, 14]               0
          Conv3d-168        [-1, 96, 1, 14, 14]          20,736
     BatchNorm3d-169        [-1, 96, 1, 14, 14]             192
AdaptiveAvgPool3d-170          [-1, 96, 1, 1, 1]               0
          Linear-171                   [-1, 24]           2,328
       Hardswish-172                   [-1, 24]               0
          Linear-173                   [-1, 96]           2,400
         Sigmoid-174                   [-1, 96]               0
       Hardswish-175        [-1, 96, 1, 14, 14]               0
      Bottleneck-176        [-1, 96, 1, 14, 14]               0
          Conv3d-177       [-1, 216, 1, 14, 14]          20,736
     BatchNorm3d-178       [-1, 216, 1, 14, 14]             432
       Hardswish-179       [-1, 216, 1, 14, 14]               0
          Conv3d-180       [-1, 216, 1, 14, 14]           5,832
     BatchNorm3d-181       [-1, 216, 1, 14, 14]             432
       Hardswish-182       [-1, 216, 1, 14, 14]               0
          Conv3d-183        [-1, 96, 1, 14, 14]          20,736
     BatchNorm3d-184        [-1, 96, 1, 14, 14]             192
AdaptiveAvgPool3d-185          [-1, 96, 1, 1, 1]               0
          Linear-186                   [-1, 24]           2,328
       Hardswish-187                   [-1, 24]               0
          Linear-188                   [-1, 96]           2,400
         Sigmoid-189                   [-1, 96]               0
       Hardswish-190        [-1, 96, 1, 14, 14]               0
      Bottleneck-191        [-1, 96, 1, 14, 14]               0
          Conv3d-192       [-1, 216, 1, 14, 14]          20,736
     BatchNorm3d-193       [-1, 216, 1, 14, 14]             432
       Hardswish-194       [-1, 216, 1, 14, 14]               0
          Conv3d-195       [-1, 216, 1, 14, 14]           5,832
     BatchNorm3d-196       [-1, 216, 1, 14, 14]             432
       Hardswish-197       [-1, 216, 1, 14, 14]               0
          Conv3d-198        [-1, 96, 1, 14, 14]          20,736
     BatchNorm3d-199        [-1, 96, 1, 14, 14]             192
AdaptiveAvgPool3d-200          [-1, 96, 1, 1, 1]               0
          Linear-201                   [-1, 24]           2,328
       Hardswish-202                   [-1, 24]               0
          Linear-203                   [-1, 96]           2,400
         Sigmoid-204                   [-1, 96]               0
       Hardswish-205        [-1, 96, 1, 14, 14]               0
      Bottleneck-206        [-1, 96, 1, 14, 14]               0
          Conv3d-207       [-1, 216, 1, 14, 14]          20,736
     BatchNorm3d-208       [-1, 216, 1, 14, 14]             432
       Hardswish-209       [-1, 216, 1, 14, 14]               0
          Conv3d-210       [-1, 216, 1, 14, 14]           5,832
     BatchNorm3d-211       [-1, 216, 1, 14, 14]             432
       Hardswish-212       [-1, 216, 1, 14, 14]               0
          Conv3d-213        [-1, 96, 1, 14, 14]          20,736
     BatchNorm3d-214        [-1, 96, 1, 14, 14]             192
AdaptiveAvgPool3d-215          [-1, 96, 1, 1, 1]               0
          Linear-216                   [-1, 24]           2,328
       Hardswish-217                   [-1, 24]               0
          Linear-218                   [-1, 96]           2,400
         Sigmoid-219                   [-1, 96]               0
       Hardswish-220        [-1, 96, 1, 14, 14]               0
      Bottleneck-221        [-1, 96, 1, 14, 14]               0
          Conv3d-222       [-1, 216, 1, 14, 14]          20,736
     BatchNorm3d-223       [-1, 216, 1, 14, 14]             432
       Hardswish-224       [-1, 216, 1, 14, 14]               0
          Conv3d-225       [-1, 216, 1, 14, 14]           5,832
     BatchNorm3d-226       [-1, 216, 1, 14, 14]             432
       Hardswish-227       [-1, 216, 1, 14, 14]               0
          Conv3d-228        [-1, 96, 1, 14, 14]          20,736
     BatchNorm3d-229        [-1, 96, 1, 14, 14]             192
AdaptiveAvgPool3d-230          [-1, 96, 1, 1, 1]               0
          Linear-231                   [-1, 24]           2,328
       Hardswish-232                   [-1, 24]               0
          Linear-233                   [-1, 96]           2,400
         Sigmoid-234                   [-1, 96]               0
       Hardswish-235        [-1, 96, 1, 14, 14]               0
      Bottleneck-236        [-1, 96, 1, 14, 14]               0
          Conv3d-237       [-1, 216, 1, 14, 14]          20,736
     BatchNorm3d-238       [-1, 216, 1, 14, 14]             432
       Hardswish-239       [-1, 216, 1, 14, 14]               0
          Conv3d-240       [-1, 216, 1, 14, 14]           5,832
     BatchNorm3d-241       [-1, 216, 1, 14, 14]             432
       Hardswish-242       [-1, 216, 1, 14, 14]               0
          Conv3d-243        [-1, 96, 1, 14, 14]          20,736
     BatchNorm3d-244        [-1, 96, 1, 14, 14]             192
AdaptiveAvgPool3d-245          [-1, 96, 1, 1, 1]               0
          Linear-246                   [-1, 24]           2,328
       Hardswish-247                   [-1, 24]               0
          Linear-248                   [-1, 96]           2,400
         Sigmoid-249                   [-1, 96]               0
       Hardswish-250        [-1, 96, 1, 14, 14]               0
      Bottleneck-251        [-1, 96, 1, 14, 14]               0
          Conv3d-252       [-1, 216, 1, 14, 14]          20,736
     BatchNorm3d-253       [-1, 216, 1, 14, 14]             432
       Hardswish-254       [-1, 216, 1, 14, 14]               0
          Conv3d-255       [-1, 216, 1, 14, 14]           5,832
     BatchNorm3d-256       [-1, 216, 1, 14, 14]             432
       Hardswish-257       [-1, 216, 1, 14, 14]               0
          Conv3d-258        [-1, 96, 1, 14, 14]          20,736
     BatchNorm3d-259        [-1, 96, 1, 14, 14]             192
AdaptiveAvgPool3d-260          [-1, 96, 1, 1, 1]               0
          Linear-261                   [-1, 24]           2,328
       Hardswish-262                   [-1, 24]               0
          Linear-263                   [-1, 96]           2,400
         Sigmoid-264                   [-1, 96]               0
       Hardswish-265        [-1, 96, 1, 14, 14]               0
      Bottleneck-266        [-1, 96, 1, 14, 14]               0
          Conv3d-267       [-1, 216, 1, 14, 14]          20,736
     BatchNorm3d-268       [-1, 216, 1, 14, 14]             432
       Hardswish-269       [-1, 216, 1, 14, 14]               0
          Conv3d-270       [-1, 216, 1, 14, 14]           5,832
     BatchNorm3d-271       [-1, 216, 1, 14, 14]             432
       Hardswish-272       [-1, 216, 1, 14, 14]               0
          Conv3d-273        [-1, 96, 1, 14, 14]          20,736
     BatchNorm3d-274        [-1, 96, 1, 14, 14]             192
AdaptiveAvgPool3d-275          [-1, 96, 1, 1, 1]               0
          Linear-276                   [-1, 24]           2,328
       Hardswish-277                   [-1, 24]               0
          Linear-278                   [-1, 96]           2,400
         Sigmoid-279                   [-1, 96]               0
       Hardswish-280        [-1, 96, 1, 14, 14]               0
      Bottleneck-281        [-1, 96, 1, 14, 14]               0
          Conv3d-282       [-1, 216, 1, 14, 14]          20,736
     BatchNorm3d-283       [-1, 216, 1, 14, 14]             432
       Hardswish-284       [-1, 216, 1, 14, 14]               0
          Conv3d-285       [-1, 216, 1, 14, 14]           5,832
     BatchNorm3d-286       [-1, 216, 1, 14, 14]             432
       Hardswish-287       [-1, 216, 1, 14, 14]               0
          Conv3d-288        [-1, 96, 1, 14, 14]          20,736
     BatchNorm3d-289        [-1, 96, 1, 14, 14]             192
AdaptiveAvgPool3d-290          [-1, 96, 1, 1, 1]               0
          Linear-291                   [-1, 24]           2,328
       Hardswish-292                   [-1, 24]               0
          Linear-293                   [-1, 96]           2,400
         Sigmoid-294                   [-1, 96]               0
       Hardswish-295        [-1, 96, 1, 14, 14]               0
      Bottleneck-296        [-1, 96, 1, 14, 14]               0
          Conv3d-297       [-1, 432, 1, 14, 14]          41,472
     BatchNorm3d-298       [-1, 432, 1, 14, 14]             864
       Hardswish-299       [-1, 432, 1, 14, 14]               0
          Conv3d-300         [-1, 432, 1, 7, 7]          11,664
     BatchNorm3d-301         [-1, 432, 1, 7, 7]             864
       Hardswish-302         [-1, 432, 1, 7, 7]               0
          Conv3d-303         [-1, 192, 1, 7, 7]          82,944
     BatchNorm3d-304         [-1, 192, 1, 7, 7]             384
AdaptiveAvgPool3d-305         [-1, 192, 1, 1, 1]               0
          Linear-306                   [-1, 48]           9,264
       Hardswish-307                   [-1, 48]               0
          Linear-308                  [-1, 192]           9,408
         Sigmoid-309                  [-1, 192]               0
          Conv3d-310         [-1, 192, 1, 7, 7]          18,432
     BatchNorm3d-311         [-1, 192, 1, 7, 7]             384
       Hardswish-312         [-1, 192, 1, 7, 7]               0
      Bottleneck-313         [-1, 192, 1, 7, 7]               0
          Conv3d-314         [-1, 432, 1, 7, 7]          82,944
     BatchNorm3d-315         [-1, 432, 1, 7, 7]             864
       Hardswish-316         [-1, 432, 1, 7, 7]               0
          Conv3d-317         [-1, 432, 1, 7, 7]          11,664
     BatchNorm3d-318         [-1, 432, 1, 7, 7]             864
       Hardswish-319         [-1, 432, 1, 7, 7]               0
          Conv3d-320         [-1, 192, 1, 7, 7]          82,944
     BatchNorm3d-321         [-1, 192, 1, 7, 7]             384
AdaptiveAvgPool3d-322         [-1, 192, 1, 1, 1]               0
          Linear-323                   [-1, 48]           9,264
       Hardswish-324                   [-1, 48]               0
          Linear-325                  [-1, 192]           9,408
         Sigmoid-326                  [-1, 192]               0
       Hardswish-327         [-1, 192, 1, 7, 7]               0
      Bottleneck-328         [-1, 192, 1, 7, 7]               0
          Conv3d-329         [-1, 432, 1, 7, 7]          82,944
     BatchNorm3d-330         [-1, 432, 1, 7, 7]             864
       Hardswish-331         [-1, 432, 1, 7, 7]               0
          Conv3d-332         [-1, 432, 1, 7, 7]          11,664
     BatchNorm3d-333         [-1, 432, 1, 7, 7]             864
       Hardswish-334         [-1, 432, 1, 7, 7]               0
          Conv3d-335         [-1, 192, 1, 7, 7]          82,944
     BatchNorm3d-336         [-1, 192, 1, 7, 7]             384
AdaptiveAvgPool3d-337         [-1, 192, 1, 1, 1]               0
          Linear-338                   [-1, 48]           9,264
       Hardswish-339                   [-1, 48]               0
          Linear-340                  [-1, 192]           9,408
         Sigmoid-341                  [-1, 192]               0
       Hardswish-342         [-1, 192, 1, 7, 7]               0
      Bottleneck-343         [-1, 192, 1, 7, 7]               0
          Conv3d-344         [-1, 432, 1, 7, 7]          82,944
     BatchNorm3d-345         [-1, 432, 1, 7, 7]             864
       Hardswish-346         [-1, 432, 1, 7, 7]               0
          Conv3d-347         [-1, 432, 1, 7, 7]          11,664
     BatchNorm3d-348         [-1, 432, 1, 7, 7]             864
       Hardswish-349         [-1, 432, 1, 7, 7]               0
          Conv3d-350         [-1, 192, 1, 7, 7]          82,944
     BatchNorm3d-351         [-1, 192, 1, 7, 7]             384
AdaptiveAvgPool3d-352         [-1, 192, 1, 1, 1]               0
          Linear-353                   [-1, 48]           9,264
       Hardswish-354                   [-1, 48]               0
          Linear-355                  [-1, 192]           9,408
         Sigmoid-356                  [-1, 192]               0
       Hardswish-357         [-1, 192, 1, 7, 7]               0
      Bottleneck-358         [-1, 192, 1, 7, 7]               0
          Conv3d-359         [-1, 432, 1, 7, 7]          82,944
     BatchNorm3d-360         [-1, 432, 1, 7, 7]             864
       Hardswish-361         [-1, 432, 1, 7, 7]               0
          Conv3d-362         [-1, 432, 1, 7, 7]          11,664
     BatchNorm3d-363         [-1, 432, 1, 7, 7]             864
       Hardswish-364         [-1, 432, 1, 7, 7]               0
          Conv3d-365         [-1, 192, 1, 7, 7]          82,944
     BatchNorm3d-366         [-1, 192, 1, 7, 7]             384
AdaptiveAvgPool3d-367         [-1, 192, 1, 1, 1]               0
          Linear-368                   [-1, 48]           9,264
       Hardswish-369                   [-1, 48]               0
          Linear-370                  [-1, 192]           9,408
         Sigmoid-371                  [-1, 192]               0
       Hardswish-372         [-1, 192, 1, 7, 7]               0
      Bottleneck-373         [-1, 192, 1, 7, 7]               0
          Conv3d-374         [-1, 432, 1, 7, 7]          82,944
     BatchNorm3d-375         [-1, 432, 1, 7, 7]             864
       Hardswish-376         [-1, 432, 1, 7, 7]               0
          Conv3d-377         [-1, 432, 1, 7, 7]          11,664
     BatchNorm3d-378         [-1, 432, 1, 7, 7]             864
       Hardswish-379         [-1, 432, 1, 7, 7]               0
          Conv3d-380         [-1, 192, 1, 7, 7]          82,944
     BatchNorm3d-381         [-1, 192, 1, 7, 7]             384
AdaptiveAvgPool3d-382         [-1, 192, 1, 1, 1]               0
          Linear-383                   [-1, 48]           9,264
       Hardswish-384                   [-1, 48]               0
          Linear-385                  [-1, 192]           9,408
         Sigmoid-386                  [-1, 192]               0
       Hardswish-387         [-1, 192, 1, 7, 7]               0
      Bottleneck-388         [-1, 192, 1, 7, 7]               0
          Conv3d-389         [-1, 432, 1, 7, 7]          82,944
     BatchNorm3d-390         [-1, 432, 1, 7, 7]             864
       Hardswish-391         [-1, 432, 1, 7, 7]               0
          Conv3d-392         [-1, 432, 1, 7, 7]          11,664
     BatchNorm3d-393         [-1, 432, 1, 7, 7]             864
       Hardswish-394         [-1, 432, 1, 7, 7]               0
          Conv3d-395         [-1, 192, 1, 7, 7]          82,944
     BatchNorm3d-396         [-1, 192, 1, 7, 7]             384
AdaptiveAvgPool3d-397         [-1, 192, 1, 1, 1]               0
          Linear-398                   [-1, 48]           9,264
       Hardswish-399                   [-1, 48]               0
          Linear-400                  [-1, 192]           9,408
         Sigmoid-401                  [-1, 192]               0
       Hardswish-402         [-1, 192, 1, 7, 7]               0
      Bottleneck-403         [-1, 192, 1, 7, 7]               0
          Conv3d-404         [-1, 432, 1, 7, 7]          82,944
     BatchNorm3d-405         [-1, 432, 1, 7, 7]             864
       Hardswish-406         [-1, 432, 1, 7, 7]               0
AdaptiveAvgPool3d-407        [-1, 432, 16, 1, 1]               0
          Linear-408             [-1, 16, 2048]         886,784
          Linear-409              [-1, 16, 157]         321,693
================================================================
Total params: 3,325,445
Trainable params: 3,325,445
Non-trainable params: 0
----------------------------------------------------------------
Input size (MB): 9.19
Forward/backward pass size (MB): 964.58
Params size (MB): 12.69
Estimated Total Size (MB): 986.45
----------------------------------------------------------------
model loaded
…
